…
    "                                            class_mode = 'binary')\n"
   ]
  },
  {
   "cell_type": "code",
   "execution_count": 8,
   "metadata": {
    "_uuid": "3bb0beb011d025b08e25e77315ea9f15c012f0c2"
   },
   "outputs": [
    {
     "name": "stdout",
     "output_type": "stream",
     "text": [
      "Model: \"sequential\"\n",
      "_________________________________________________________________\n",
      "Layer (type)                 Output Shape              Param #   \n",
      "=================================================================\n",
      "conv2d (Conv2D)              (None, 62, 62, 32)        896       \n",
      "_________________________________________________________________\n",
      "max_pooling2d (MaxPooling2D) (None, 31, 31, 32)        0         \n",
      "_________________________________________________________________\n",
      "conv2d_1 (Conv2D)            (None, 29, 29, 32)        9248      \n",
      "_________________________________________________________________\n",
      "max_pooling2d_1 (MaxPooling2 (None, 14, 14, 32)        0         \n",
      "_________________________________________________________________\n",
      "flatten (Flatten)            (None, 6272)              0         \n",
      "_________________________________________________________________\n",
      "dense (Dense)                (None, 128)               802944    \n",
      "_________________________________________________________________\n",
      "dense_1 (Dense)              (None, 1)                 129       \n",
      "=================================================================\n",
      "Total params: 813,217\n",
      "Trainable params: 813,217\n",
      "Non-trainable params: 0\n",
      "_________________________________________________________________\n"
     ]
    }
   ],
   "source": [
    "cnn.summary()"
   ]
  },
  {
   "cell_type": "code",
   "execution_count": 9,
   "metadata": {
…
